app/src/main/ml/tflite_model.tflite (tflite, 80868 bytes, 4 tensors)

dense_5/bias f4 [4]
000000 63 bb 1a bc 14 e6 7a 3c 86 5a 0f bb 57 8a dc 3b
       -0.009444091 0.015313644 -0.0021874025 0.0067303586

dense_4/bias f4 [128]
000000 f5 47 aa 3b 97 16 2f bc 11 9e 3b bc 2e 98 ca 3b
       0.005196566 -0.010686538 -0.01145126 0.006182692
000010 bd 1f e8 3c 34 19 ad 3c eb a5 47 3c e7 6e 45 3c
       0.028335446 0.021130182 0.012185554 0.012050367
000020 7a 9a 9c bb 4e e2 87 3c 7a 6f 5e 3c ae 34 e1 3b
       -0.004779157 0.016587403 0.013576383 0.006872735
000030 50 f6 a1 b9 8e 59 94 bb 80 89 a9 3a 1f b0 62 bc
       -0.0003089183 -0.0045272773 0.0012934655 -0.013835936
000040 cc 7f 94 bb b1 42 b5 bb 9b 2f c1 3c d6 76 8d 3c
       -0.004531836 -0.005531632 0.02358227 0.01726858
000050 cd a2 c4 bb 63 9a c3 3c 4e d7 4f bb ae 79 06 3c
       -0.0060008527 0.023877328 -0.0031714025 0.008207722
000060 d5 cb 39 bc 0d c9 45 bc 18 5b 05 bc 44 93 8e ba
       -0.011340101 -0.01207186 -0.008139394 -0.0010877629
000070 05 c5 25 3c 7c cf 1a bc 83 af 01 bb a5 53 f8 bc
       0.010117774 -0.009448882 -0.001978845 -0.030313322
000080 fe 4c 5b 3b df f2 77 bc 6a bf 08 bb 52 66 e1 3b
       0.003346264 -0.015133589 -0.0020866045 0.0068786526
000090 04 ea 77 3c 41 a4 80 3c a9 ff 87 bc 90 60 8b 3c
       0.015131477 0.015703322 -0.0166014 0.017013818
0000a0 db d5 97 bc 54 e9 57 bb 39 a8 29 ba d5 58 82 3b
       -0.018534591 -0.003294547 -0.00064719055 0.0039778748
0000b0 0c 23 8e 3c ab 2a a5 bc 4c 93 75 3b 63 65 76 3c
       0.017350696 -0.020161947 0.003747183 0.015038821
0000c0 c9 af d2 3b 36 cc 11 bc 59 bc 92 3c bf 27 c6 3c
       0.0064296466 -0.008898785 0.017912077 0.024188874
0000d0 b2 13 17 3c ff cb 9b bb a7 f3 1c 3c 5e 36 ce bb
       0.009221004 -0.004754543 0.009579576 -0.006293102
0000e0 49 c5 09 bc 26 48 77 3c 6f 77 11 bc 7a 5f 03 bd
       -0.008408853 0.015092885 -0.008878573 -0.032073475
0000f0 12 82 6f bc 86 0c 22 3c 86 a4 15 3c 64 e9 87 bc
       -0.0146184135 0.009890681 0.009133464 -0.016590782
000100 39 43 7d bc 0f d0 c2 3c 97 6a 2e bc 00 c8 81 bc
       -0.015457922 0.02378085 -0.01064553 -0.015842438
000110 b2 51 51 bb 22 f3 51 bc 1b 9c 3e 3c 77 15 56 3b
       -0.0031939563 -0.012814315 0.011633898 0.0032666603
000120 25 c2 b6 3b a2 e1 e8 bc c4 28 49 bb 17 79 6c bb
       0.005577343 -0.028427903 -0.0030694464 -0.0036082917
000130 ec de ee ba e8 f5 1c bc bd bd 19 3c 46 04 3b 3b
       -0.0018224395 -0.009580113 0.009383616 0.0028536483
000140 e9 7b b5 3b 5b 4f 82 bb d0 00 c1 bc 18 b1 45 38
       0.005538453 -0.003976745 -0.023559958 4.713339e-05
000150 9c fe 9b 3a ca 10 b1 bc af 02 11 3c 90 62 0f bc
       0.0011901441 -0.021614451 0.0088507375 -0.0087515265
000160 cf 3e 58 bc 31 14 c8 bc b0 c3 85 3b 55 a4 62 bb
       -0.0131985685 -0.02442369 0.0040821657 -0.0034582813
000170 65 b9 e7 bb e8 49 64 bc 7d 5f a7 bb 07 70 6b bc
       -0.0070716613 -0.013933636 -0.0051078186 -0.014369971
000180 03 8c 48 bc 24 92 c4 3b 83 88 d2 bb d3 7f 2a 3c
       -0.012240413 0.0059988666 -0.006424965 0.010406452
000190 ab a4 c6 b9 86 5a 72 bc 0b 95 17 bb 00 6b 44 bc
       -0.0003788819 -0.01479209 -0.0023129608 -0.011988401
0001a0 2b f4 c6 bb 77 cb 00 3c 50 d5 72 3b 0a f7 cf 3b
       -0.0060715876 0.00786101 0.0037053414 0.006346588
0001b0 45 6f 42 bc 3c bd b4 bc d0 9b bd 3b bb a4 c4 bc
       -0.011867349 -0.02206289 0.0057863966 -0.02400433
0001c0 bd ff c3 bb 32 1e 37 3c 6c 37 58 3a 65 60 a6 bb
       -0.005981414 0.011176633 0.00082480046 -0.005077409
0001d0 be 20 81 39 f0 c0 41 39 72 28 14 bc bc 51 c3 3b
       0.00024629192 0.00018477789 -0.009042846 0.005960671
0001e0 71 24 ec 3b 3b 38 9e bc fe 71 f1 3b 41 36 4b 3b
       0.0072064926 -0.019313922 0.0073683253 0.003100768
0001f0 0c 9a ba bb bc da cf bb 86 75 64 bc db ab b6 bb
       -0.0056946333 -0.006343214 -0.013944035 -0.005574686

sequential_2/dense_4/MatMul f4 [128, 150]
000000 c5 42 1f be 56 bf b4 3d 3b 5a 2d 3d 33 16 75 3d
       -0.15552814 0.08825557 0.04232238 0.059835624
000010 66 6a d7 bd f3 60 4a 3d e8 9b e3 3c cd bc 6e 3c
       -0.10518341 0.049408864 0.027784303 0.014571381
000020 c2 76 f8 3d 1a d2 89 bd 38 e5 20 3d 59 05 25 bd
       0.12132026 -0.06729527 0.0392811 -0.040288303
000030 8c cb 9f 3d 7f ed 0d be 85 e8 bb bb a3 a0 3e bd
       0.07802495 -0.13860129 -0.0057345056 -0.046539914
000040 3a ed 58 bc 6b 9e b3 bd 87 c3 b2 3d bc d6 fe bc
       -0.013240153 -0.0877045 0.087287 -0.031108253
000050 43 33 87 3d 3b 1e 2a be 1d 1b 22 3e 8e 26 90 bd
       0.06601574 -0.16613095 0.15830655 -0.07038604
000060 b3 73 e0 3d 1e f6 4c 3d 62 ee 69 3b 9e b7 8b 3d
       0.10959568 0.050039403 0.0035695066 0.068221316
000070 7f 47 77 bd 32 23 04 3a 12 c1 82 bd ac 04 ce 3c
       -0.06037092 0.0005040645 -0.063844815 0.025148712
000080 2e d5 02 be 53 5b 08 be d6 ba d1 3b 28 8d 18 be
       -0.12776634 -0.13316087 0.0064004464 -0.14897597
000090 59 b9 d3 bd d2 bc c0 bd 15 71 f5 3d d4 73 40 bd
       -0.10338087 -0.094110146 0.11984459 -0.046985462
0000a0 63 81 f1 3d fb b7 f4 3d 31 56 f4 3d a1 3c 03 3e
       0.11792257 0.11949154 0.11930502 0.12816097
0000b0 c2 42 0a be cf 8a eb bd 39 ad 8f bd 44 9b f9 bd
       -0.13502029 -0.11501085 -0.070154615 -0.12187818
0000c0 65 d3 51 3c 6f 00 b1 bd 17 b7 f0 ba 5f 13 24 3d
       0.012806748 -0.08642661 -0.0018365112 0.040057536
0000d0 26 06 04 be 80 d5 00 3e 30 d4 89 3d f7 2b e7 ba
       -0.1289297 0.12581444 0.06729925 -0.0017637004
0000e0 da 29 ef bc b1 09 d6 3d 91 92 9e bc ba ad db bd
       -0.029194761 0.10451067 -0.019356998 -0.10726495
0000f0 2e 3b 9f bc f7 a0 4e 3d 34 c5 f9 3c fa b9 b4 3c
       -0.019437399 0.050446477 0.030489542 0.022061337
000100 93 85 ed bd ad 0d 27 bd 37 43 8f bd 0e 32 46 bc
       -0.11597743 -0.040784527 -0.06995242 -0.012096895
000110 23 4b a7 bd ef 28 c4 bb e8 c2 2d bd 07 cb cc bd
       -0.08168628 -0.005986325 -0.042422205 -0.09999662
000120 15 f7 f8 bd d1 e6 05 3d 23 e6 0f 3e a6 97 00 3d
       -0.12156502 0.032690827 0.14052634 0.031394623
000130 3e ac e3 3d 55 3e 9b bd 28 26 80 bd 38 d5 a5 bd
       0.11116837 -0.07580248 -0.06257278 -0.08097309
000140 19 cc 92 3d 7c 92 eb 3d ac 41 03 be fb b2 5d 3c
       0.07167835 0.11502549 -0.1281802 0.013531442
000150 41 a6 39 bd 4b cb c6 bc 00 26 39 bd 7a 0d 33 3d
       -0.045324568 -0.02426686 -0.045202255 0.043714024
000160 e3 77 d1 bc 04 62 8b 3d 6f c5 03 3b 95 ea fd bd
       -0.025569862 0.06805804 0.0020106693 -0.123982586
000170 8a 5e 25 3e 1e ef cb 3d f5 3b 04 3e 1a 00 1b be
       0.16149345 0.09957717 0.12913497 -0.15136757
000180 81 09 9b bd f8 19 0a be 24 6f c6 bd e8 1d 6f 3d
       -0.07570172 -0.13486469 -0.09689167 0.05837813
000190 e7 69 0e be 98 95 eb bc 25 f9 97 3d 85 c9 dd bc
       -0.13907586 -0.028757855 0.074205674 -0.027073631
0001a0 3d 76 b4 bd 04 63 6d 3c 21 03 df bc 1f d2 99 3d
       -0.08811615 0.014488939 -0.027223172 0.075107805
0001b0 e2 2d 31 bd a0 40 80 3d b5 38 9b bc c8 6c 02 3e
       -0.043256648 0.06262326 -0.018947938 0.12736809
0001c0 83 e5 76 bd 9b 91 92 3d 76 bd f5 bd d3 23 22 be
       -0.060277473 0.07156678 -0.119990274 -0.15833978
0001d0 25 9c 94 3d c6 c9 c3 bb e3 e3 e8 bd 57 1b 7f bc
       0.07256345 -0.005974981 -0.11371591 -0.015570483
0001e0 1c a2 f3 3d aa 51 16 3d 4f 54 a7 3c 67 fd 9c 3d
       0.11896154 0.036698975 0.020425944 0.0766552
0001f0 62 0f f9 bd cf a1 fd 3d fa b3 f7 bc 85 79 ce 3d
       -0.12161137 0.12384378 -0.030237187 0.10081772
000200 c0 71 a1 3d 87 6b 8d 3d 6a df 87 3d 7d 6c 1c 3d
       0.07883024 0.06905275 0.0663441 0.0381894
000210 82 55 98 bd ae ac ae 3d 31 80 8d bd de e7 05 be
       -0.07438184 0.0852903 -0.06909216 -0.13076732
000220 8d a1 e5 3d 0a 10 09 3e 6d f5 94 bd fa ba 98 bd
       0.11212454 0.13385025 -0.07273374 -0.07457538
000230 fc e8 6e bd ad e5 05 3e f8 cf 99 3a 59 7a 93 3d
       -0.05832766 0.13075896 0.0011734953 0.0720107
000240 4b 4e a0 3d 65 63 be bc 60 74 5d bd 86 bc b2 3d
       0.07827433 -0.023240754 -0.054066062 0.08727364
000250 10 5a f5 3d b3 0d d7 3d 22 e5 f4 bd 2c c1 13 be
       0.11980069 0.1050066 -0.11957766 -0.14429158
000260 28 1e eb bc b6 e2 72 3d a3 3f 06 bd a4 db 06 be
       -0.028700903 0.05929824 -0.032775532 -0.13169724
000270 42 26 d2 3d 1e 84 e6 bc 69 80 06 be 7b 14 11 be
       0.10261203 -0.02813917 -0.13134922 -0.14167969
000280 9f 2e 11 3e 80 fa 08 3e 9c 98 a2 bd b0 15 29 be
       0.14177941 0.13376808 -0.07939264 -0.1651218
000290 12 5e 53 3d bc ab 88 3b 51 b2 06 be eb 71 46 bd
       0.051603384 0.004170863 -0.1315396 -0.048448484
0002a0 68 54 09 3e 04 23 b6 bd 0f 6b 00 3e 47 ba c9 3d
       0.13411105 -0.088933975 0.1254084 0.09849983
0002b0 aa 6d 32 ba 50 1a df 3d 73 62 05 be ef 4a 97 bc
       -0.00068065024 0.108936906 -0.13025837 -0.018468348
0002c0 0e 58 08 bd 00 bc 89 bd 14 78 1b bd b6 54 89 3d
       -0.0332871 -0.06725311 -0.037956312 0.067056105
0002d0 e3 b1 06 be 9d 2e 01 3c 06 75 29 bd d9 05 7c 3d
       -0.13153796 0.007884649 -0.041371368 0.061529014
0002e0 0f 97 aa bd 9e a6 14 3d 80 2b fe bd 36 47 50 3d
       -0.083295934 0.03629171 -0.12410641 0.050849162
0002f0 54 48 ff bc 35 24 d0 bd 67 22 95 bc 4c 5a f5 3d
       -0.031162418 -0.10163156 -0.01820488 0.119801134
000300 63 8b 08 3e b7 ee f4 3c c4 59 90 bd 27 54 a5 3d
       0.13334422 0.029898984 -0.070483714 0.080726914
000310 1a de c2 bd 42 c1 af 3d 2b 8c 6b 3d 88 d0 0f be
       -0.09515019 0.08581783 0.05750672 -0.14044392
000320 70 72 26 bd 8e f2 67 3d d8 8b 07 be 53 42 08 3e
       -0.04063648 0.056627803 -0.1323694 0.1330655
000330 e5 0a bf 3d 37 69 83 bd 07 52 14 be ee be eb 3d
       0.0932825 -0.064165525 -0.14484416 0.11511026
000340 c6 ab 59 3d fc 2a e1 3c 7b 7a fe 3c a3 3d 3c 3c
       0.05314233 0.027486317 0.031064263 0.011489305
000350 ad 35 7c bc 12 f8 bd bd 6c 61 b9 3d bc f3 6d 3d
       -0.015393657 -0.09275831 0.09051785 0.05809377
000360 01 df a6 bd 6c ce a9 ba e9 e3 b8 3d 9b 18 13 3c
       -0.08148003 -0.0012955195 0.090278454 0.008978034
000370 ac 5c 26 bd d5 99 15 be 5b bd a8 3d e4 f4 f3 3d
       -0.040615723 -0.14609464 0.08239242 0.119119436
000380 9f 02 85 3d fc 28 90 bd 5c 69 08 be 89 d1 0f be
       0.064946406 -0.07039067 -0.13321441 -0.14044775
000390 2d 56 c4 3c cf 50 c7 bc 7b a5 ff bd 2c a0 58 3c
       0.023966873 -0.024330525 -0.12482735 0.013221782
0003a0 b6 3a 61 3d 3b 61 14 be 8d e0 88 3d a7 b2 ee 3d
       0.05498763 -0.14490215 0.06683455 0.11655169
0003b0 58 be 1c 3d 62 ad 8e bc ae 2e 0f 3d e0 07 13 be
       0.038267463 -0.01741666 0.034956627 -0.14358473
0003c0 f3 2c ee 3d c7 de bf bc fa db 0d be 7c c2 ca 3d
       0.11629667 -0.023421658 -0.13853446 0.09900376
0003d0 f5 dd 4c bd 3e 70 26 3d 7c 48 d9 bd 52 a7 5e bd
       -0.050016362 0.040634386 -0.106095284 -0.054358788
0003e0 79 df cb bd 9c b7 f0 bd 20 6d 2c 3d 45 50 06 be
       -0.099547334 -0.11753771 0.042096257 -0.13116558
0003f0 53 c5 25 bd 00 4f da 3c 3f 99 c0 3d b0 62 41 bc
       -0.040471386 0.026648998 0.094042294 -0.011803314

sequential_2/dense_5/MatMul f4 [4, 128]
000000 71 3f 1b 3e b9 47 09 3e ad ff 1c 3e ac 3f 24 bd
       0.1516092 0.13406266 0.15331908 -0.040099785
000010 15 15 04 3c cb 26 13 be 5f 11 bf bd 3f 39 fc bd
       0.008061667 -0.14370267 -0.09329485 -0.12315606
000020 d5 5b 4a 3e b7 e1 9b bd 43 8c 41 be 42 ee e4 3d
       0.19761594 -0.07611411 -0.18901162 0.111782566
000030 e1 f8 15 be 43 e3 d9 3d 68 a3 04 3e 7e c8 65 bc
       -0.14645721 0.1063905 0.1295296 -0.014024852
000040 a1 25 4a 3e b4 af e4 bd 20 c0 00 bd 2c 0a 0a 3e
       0.19740917 -0.11166325 -0.031433225 0.13480443
000050 13 dc dd 3b f1 69 28 be 43 cd 92 bc b5 d6 b7 3d
       0.0067706197 -0.16446663 -0.017920142 0.08976499
000060 a5 1b 46 be ff 26 5c 3d f1 71 a2 bd 11 e9 b4 3d
       -0.19346483 0.053748127 -0.07931889 0.088335164
000070 0b 0d 06 bd 37 48 1c be 66 02 a1 bd 4c d3 2a 3e
       -0.032727282 -0.15261923 -0.078617856 0.16682166
000080 2a d4 3d 3d 1c a9 00 3d f9 45 13 3c 70 e1 4b bd
       0.046344914 0.031411275 0.008988851 -0.04977554
000090 31 33 7b bd ee 46 bc 3c 42 3f 08 be bd 15 42 3e
       -0.061328117 0.02298304 -0.13305381 0.18953605
0000a0 b4 80 31 3e 0c ce dd 3d c7 d0 c8 bd 60 9d 4c be
       0.17334253 0.10830316 -0.09805446 -0.19981909
0000b0 2f 78 17 be c3 ad 51 be 38 23 4f be e9 e0 19 be
       -0.1479194 -0.20476441 -0.20228279 -0.15027203
0000c0 c5 8a 44 be 21 5f 39 3e cc 3c 49 be a2 ff d6 bd
       -0.19193561 0.18102695 -0.19652098 -0.10497977
0000d0 4f 20 38 3d 20 1f 50 bd fb ca 9e bd de 6a 1c be
       0.044952687 -0.050810933 -0.07753559 -0.15275142
0000e0 d0 96 2f 3e a6 f3 68 be 01 3b 82 3d 42 82 d2 3d
       0.17147374 -0.22749195 0.0635891 0.10278751
0000f0 d3 bc 78 3d a6 7d 22 be 8c 42 23 be 52 87 17 3e
       0.06072695 -0.15868244 -0.15943354 0.14797714
000100 ed ab fa bd e3 45 3f be fa 2c 39 3e 65 51 bc 3d
       -0.122398235 -0.18679003 0.18083563 0.09195212
000110 d0 dc 11 be ce 34 a7 3d f5 26 b8 3d 70 36 86 36
       -0.1424439 0.081643686 0.089918055 3.9998486e-06
000120 86 2c dd bd 19 41 aa 3d bc a0 bc 3d c9 07 e4 bc
       -0.10799508 0.08313198 0.09210345 -0.027835744
000130 47 01 33 be ec 6f cd 3d ec 94 38 be 26 b7 88 bd
       -0.17480956 0.10031113 -0.18025559 -0.06675558
000140 ce 67 d8 3d 1a a6 08 3e fd a7 57 bd 47 4c e7 3d
       0.10566674 0.13344613 -0.05265044 0.112938456
000150 3b 40 d9 bd 99 72 d0 bc 7d b4 2f be 81 ab 21 3e
       -0.10607954 -0.02544527 -0.17158695 0.1578808
000160 6a d2 40 3e 0f 06 eb bd fc 9f 90 3b 20 4d 35 be
       0.18830267 -0.11475765 0.004413603 -0.17705202
000170 3e ea f5 3d 88 13 24 3d c7 b5 c5 3c 89 51 f3 3b
       0.12007569 0.04005769 0.02413453 0.007425491
000180 fd 17 1a 3e 2b 4a 45 3d f6 cd 03 3e 65 8e da bd
       0.15048213 0.048166435 0.12871537 -0.10671691
000190 f3 39 83 bc bc 02 d2 3a ec de 3d 3e 52 0b 1c 3e
       -0.016018843 0.0016022543 0.18542069 0.15238693
0001a0 82 04 9a bd 6f 83 2f 3e 3a ca 2d 3e d0 a8 ba 3d
       -0.07520391 0.17139982 0.16971675 0.0911423
0001b0 64 24 01 be 1b ff 5e 3e ce 57 5e be 45 12 48 3e
       -0.12611538 0.21777003 -0.21713182 0.1953822
0001c0 62 b9 cb 3c ea 3c 43 be db c6 49 3e 76 4f b7 3d
       0.02486867 -0.19066206 0.19704764 0.08950703
0001d0 54 2e 00 be 07 ba 54 3d af 9c 1c 3c a2 c9 9e 3c
       -0.12517673 0.051935222 0.009558841 0.019383255
0001e0 5f 8a 97 bd cb 5b 39 3e 4b 34 08 be 74 60 3f bd
       -0.07399439 0.18101422 -0.13301198 -0.046722844
0001f0 fc fe 16 3e 5c 5f 87 3d 9e 34 1b 3d e6 ab b3 bc
       0.14745706 0.06609985 0.037891977 -0.021932553
000200 c0 c1 3c 3d 48 76 32 be 14 9e e9 bd 93 ad c6 bd
       0.046083212 -0.17427933 -0.11407104 -0.097010754
000210 c1 1c 61 bc 12 dc 7e 3d ea 44 8e 3d 05 ea d8 3d
       -0.013739766 0.062221594 0.06946738 0.10591511
000220 ff 46 e4 3d f0 ac 51 bc db 83 9c 3d 8c fa 0c bd
       0.11146354 -0.012797579 0.07642337 -0.034418628
000230 98 0a 21 be 4f c4 39 be 38 f6 09 be 0e af 28 3d
       -0.15726697 -0.18141292 -0.13472831 0.04118257
000240 54 45 74 bd 50 32 45 be 0b d2 61 3d 97 5a 1e 3e
       -0.05963643 -0.19257474 0.055131953 0.15464245
000250 72 3a 46 3e 14 24 fa bd 12 17 2b be 81 25 92 bd
       0.19358233 -0.122139126 -0.1670802 -0.071360596
000260 b8 e8 86 bd 63 b3 b3 bd 99 76 f0 3d 1f 9e 0f 3e
       -0.06587356 -0.0877445 0.11741371 0.14025162
000270 d6 b2 e4 3d 5e e9 49 3e 20 e0 fb 3d 4f 13 64 bb
       0.11166923 0.19717929 0.12298608 -0.0034801548
000280 a4 fe 00 3d d3 ca 2f be 96 db d3 bd 1e c1 2f be
       0.031492844 -0.17167215 -0.10344617 -0.17163512
000290 ac a7 df 3c ff a1 e8 bd c5 56 16 3e 64 91 3b 3e
       0.027301632 -0.11359023 0.14681537 0.18317181
0002a0 11 02 87 bc d4 05 20 be 12 f6 0a 3b 8e 69 9b 3d
       -0.016480478 -0.15627223 0.0021203798 0.07588492
0002b0 0f 48 e9 3d 6d 24 d5 bd 0c 94 e4 3d 53 0f 35 3d
       0.11390697 -0.10407338 0.1116105 0.044204067
0002c0 91 ad 5a 3e 0a 72 37 bd b6 ec d8 3d 77 0c b2 3d
       0.21355273 -0.04478649 0.10592024 0.08693784
0002d0 ab 9e cc 3c 93 50 4a be 3c ac 9d 3d 96 a3 93 bd
       0.024978003 -0.19757299 0.07698867 -0.07208936
0002e0 56 8b aa 3d 9c 5d 44 3d d9 be 36 be 06 87 d4 bd
       0.083273575 0.047940835 -0.1784624 -0.10377316
0002f0 3a dd 92 bd 76 a5 1e 3e b9 5e c2 3c 03 8c 3e be
       -0.07171102 0.15492806 0.023726808 -0.18608098
000300 f7 53 d4 bd fc e6 78 bd 67 a3 06 be c5 36 f0 bd
       -0.103675775 -0.06076716 -0.1314827 -0.117291965
000310 e2 6c 9b bc 1a 30 5c bc 8f 5a 27 3e b8 ea c1 bd
       -0.018972818 -0.013439203 0.16343139 -0.09468597
000320 73 95 e1 bc 6f 68 01 be 24 7f 13 3e 6f 0c 45 3d
       -0.027537083 -0.12637495 0.14403969 0.04810756
000330 cd 62 94 bd 59 67 43 bd 46 c7 d0 3d ed ed 81 3d
       -0.07245407 -0.047705982 0.101942584 0.06344209
000340 70 6d 29 3e 12 ef 49 39 4d 0f 4a be dc 2c fb 3d
       0.16545653 0.00019257914 -0.197324 0.122644156
000350 fa 28 ac 3d 1a 84 92 3d c0 b5 75 bd 6f 06 a9 bd
       0.08406253 0.071541026 -0.059987783 -0.0825318
000360 b7 bd 09 3d a4 3e c1 3c 15 42 20 be 9f 86 95 3b
       0.03362819 0.02358944 -0.15650208 0.004563167
000370 0f 12 70 3e 47 18 77 bc f1 49 49 be a0 7c 11 be
       0.23444389 -0.015081472 -0.19657113 -0.14207697
000380 c7 01 fd 3d 89 a5 14 3d 69 0a 0d be bf 81 22 3e
       0.123538546 0.03629068 -0.13773502 0.15869807
000390 12 18 8d 3c 39 93 2f be 04 c5 20 3e 4a 1c 94 bd
       0.017223392 -0.17146005 0.15700155 -0.07231958
0003a0 6c 6a d6 bd c6 25 bb 3c 48 f4 c5 3d 39 95 5b 3e
       -0.10469517 0.02284516 0.096657336 0.21443643
0003b0 b2 80 89 bd 95 ea 6a bd a9 95 e3 bd a8 49 e9 bc
       -0.06714 -0.05735262 -0.1111253 -0.028477505
0003c0 70 8a 2e be 82 c0 0b be f5 8b 93 bc ae ff df bd
       -0.17044997 -0.13647655 -0.018011073 -0.10937439
0003d0 7e 3e 63 bd 0f 0f cb bd 44 32 48 3d e7 4e 5a 3e
       -0.05547952 -0.099149816 0.048876062 0.21319161
0003e0 51 19 1d 3e 63 b8 3c bd b1 06 dc 3d 04 28 71 3d
       0.15341689 -0.046074282 0.10743464 0.058876052
0003f0 f0 57 0d 3e 21 4d c5 3d 9c f4 af 3d 21 f3 23 be
       0.13803077 0.09633852 0.085915774 -0.16010715
